Model
________________________________________________________________________________
Layer (type)                        Output Shape                    Param #     
================================================================================
separable_conv2d_1 (SeparableConv2D (None, 2, 232, 4)               18          
________________________________________________________________________________
batch_normalization_1 (BatchNormali (None, 2, 232, 4)               16          
________________________________________________________________________________
max_pooling2d_1 (MaxPooling2D)      (None, 1, 116, 4)               0           
________________________________________________________________________________
separable_conv2d_2 (SeparableConv2D (None, 1, 116, 8)               80          
________________________________________________________________________________
batch_normalization_2 (BatchNormali (None, 1, 116, 8)               32          
________________________________________________________________________________
flatten_1 (Flatten)                 (None, 928)                     0           
________________________________________________________________________________
dense_1 (Dense)                     (None, 8)                       7432        
________________________________________________________________________________
dense_2 (Dense)                     (None, 1)                       9           
================================================================================
Total params: 7,587
Trainable params: 7,563
Non-trainable params: 24
________________________________________________________________________________


